…
            "    (1): ReLU()\n",
            "    (2): MaxPool2d(kernel_size=2, stride=2, padding=0, dilation=1, ceil_mode=False)\n",
            "  )\n",
            "  (layer_3): Flatten(start_dim=1, end_dim=-1)\n",
            "  (layer_4): Linear(in_features=980, out_features=10, bias=True)\n",
            ")\n",
            "----------------------------------------------------------------\n",
            "        Layer (type)               Output Shape         Param #\n",
            "================================================================\n",
            "            Conv2d-1           [-1, 10, 28, 28]             260\n",
            "              ReLU-2           [-1, 10, 28, 28]               0\n",
            "         MaxPool2d-3           [-1, 10, 14, 14]               0\n",
            "            Conv2d-4           [-1, 20, 14, 14]           5,020\n",
            "              ReLU-5           [-1, 20, 14, 14]               0\n",
            "         MaxPool2d-6             [-1, 20, 7, 7]               0\n",
            "           Flatten-7                  [-1, 980]               0\n",
            "            Linear-8                   [-1, 10]           9,810\n",
            "================================================================\n",
            "Total params: 15,090\n",
            "Trainable params: 15,090\n",
            "Non-trainable params: 0\n",
            "----------------------------------------------------------------\n",
            "Input size (MB): 0.00\n",
            "Forward/backward pass size (MB): 0.21\n",
            "Params size (MB): 0.06\n",
…
